assets/models/tcn_model_int8.tflite (tflite, 24712 bytes, 12 tensors)

tfl.pseudo_qconst1 i1 [16, 1, 1, 16]
0	0x6f	111
1	0x13	19
2	0x6f	111
3	0xca	-54
4	0x81	-127
5	0x26	38
6	0xda	-38
7	0xf6	-10
8	0xd8	-40
9	0x9e	-98
10	0xfe	-2
11	0xe4	-28
12	0x40	64
13	0x04	4
14	0x9a	-102
15	0x77	119
16	0x91	-111
17	0xf7	-9
18	0x99	-103
19	0x34	52
20	0x9a	-102
21	0x40	64
22	0xbe	-66
23	0x93	-109
24	0x7c	124
25	0x06	6
26	0xd3	-45
27	0xc5	-59
28	0x7f	127
29	0xe2	-30
30	0x79	121
31	0x5e	94
32	0x01	1
33	0x81	-127
34	0x27	39
35	0xa5	-91
36	0xdc	-36
37	0x0c	12
38	0xdd	-35
39	0xc8	-56
40	0xfa	-6
41	0x07	7
42	0x14	20
43	0x1d	29
44	0xf8	-8
45	0xaf	-81
46	0xb7	-73
47	0x4d	77
48	0xdf	-33
49	0x97	-105
50	0x1e	30
51	0x0e	14
52	0xd6	-42
53	0xe3	-29
54	0x38	56
55	0x47	71
56	0x81	-127
57	0x90	-112
58	0x97	-105
59	0x75	117
60	0xd1	-47
61	0x9e	-98
62	0x3f	63
63	0x5e	94
64	0xd5	-43
65	0xc5	-59
66	0x8e	-114
67	0x94	-108
68	0x7c	124
69	0xd3	-45
70	0x1c	28
71	0xbc	-68
72	0xfb	-5
73	0x1c	28
74	0xf5	-11
75	0xf5	-11
76	0xe0	-32
77	0xbf	-65
78	0x7f	127
79	0x9b	-101
80	0x62	98
81	0x42	66
82	0x91	-111
83	0x30	48
84	0x4d	77
85	0xcf	-49
86	0x28	40
87	0x81	-127
88	0x63	99
89	0xbe	-66
90	0x90	-112
91	0xee	-18
92	0xe9	-23
93	0x84	-124
94	0x20	32
95	0x55	85
96	0xc3	-61
97	0xcc	-52
98	0x0f	15
99	0x18	24
100	0xe5	-27
101	0xd3	-45
102	0x57	87
103	0xd6	-42
104	0x5b	91
105	0x94	-108
106	0x81	-127
107	0xc1	-63
108	0x2a	42
109	0x91	-111
110	0x59	89
111	0x17	23
112	0xd1	-47
113	0xbd	-67
114	0x7f	127
115	0x79	121
116	0xed	-19
117	0x1c	28
118	0xb8	-72
119	0x87	-121
120	0x15	21
121	0x5c	92
122	0x1a	26
123	0x1c	28
124	0x6b	107
125	0x28	40
126	0xb2	-78
127	0x48	72
128	0x55	85
129	0x35	53
130	0x1f	31
131	0xf9	-7
132	0x17	23
133	0x81	-127
134	0x16	22
135	0xa8	-88
136	0xcb	-53
137	0x5e	94
138	0x5b	91
139	0xca	-54
140	0x00	0
141	0x6c	108
142	0x57	87
143	0x3c	60
144	0x54	84
145	0xc9	-55
146	0x64	100
147	0x2b	43
148	0x7f	127
149	0x9e	-98
150	0x8a	-118
151	0x64	100
152	0xc3	-61
153	0x63	99
154	0xe0	-32
155	0x7e	126
156	0x26	38
157	0xf0	-16
158	0xa8	-88
159	0x85	-123
160	0x4c	76
161	0xf5	-11
162	0x58	88
163	0xad	-83
164	0xd0	-48
165	0xa4	-92
166	0x04	4
167	0xd5	-43
168	0x63	99
169	0x57	87
170	0xa8	-88
171	0x81	-127
172	0x22	34
173	0x2b	43
174	0x53	83
175	0x19	25
176	0x1d	29
177	0x83	-125
178	0x81	-127
179	0x31	49
180	0x03	3
181	0x59	89
182	0xd1	-47
183	0xa4	-92
184	0x5f	95
185	0xea	-22
186	0xea	-22
187	0x09	9
188	0x96	-106
189	0x73	115
190	0xf1	-15
191	0x69	105
192	0x55	85
193	0x70	112
194	0x2f	47
195	0x6d	109
196	0x5a	90
197	0xae	-82
198	0x7f	127
199	0x2b	43
200	0x25	37
201	0x4c	76
202	0xb6	-74
203	0xe1	-31
204	0xbd	-67
205	0xe2	-30
206	0xf7	-9
207	0x03	3
208	0xca	-54
209	0x47	71
210	0xbf	-65
211	0x9b	-101
212	0x07	7
213	0x7f	127
214	0x61	97
215	0x33	51
216	0x69	105
217	0x46	70
218	0xc2	-62
219	0x60	96
220	0x54	84
221	0xd3	-45
222	0x3f	63
223	0x59	89
224	0x22	34
225	0x86	-122
226	0x05	5
227	0x5d	93
228	0x73	115
229	0x1d	29
230	0x7c	124
231	0x7f	127
232	0x59	89
233	0x5e	94
234	0xbf	-65
235	0xd2	-46
236	0x40	64
237	0xdf	-33
238	0xde	-34
239	0xb5	-75
240	0x95	-107
241	0x65	101
242	0x91	-111
243	0xb6	-74
244	0xad	-83
245	0x64	100
246	0xbd	-67
247	0x78	120
248	0x26	38
249	0x81	-127
250	0x9c	-100
251	0xb2	-78
252	0x4c	76
253	0xa0	-96
254	0x63	99
255	0x3b	59

tfl.pseudo_qconst3 i1 [16, 1, 3, 16]
0	0x55	85
1	0xd2	-46
2	0xf7	-9
3	0x90	-112
4	0xfa	-6
5	0x40	64
6	0xbe	-66
7	0x0e	14
8	0xb6	-74
9	0xe1	-31
10	0xee	-18
11	0xd7	-41
12	0x10	16
13	0xd5	-43
14	0x0a	10
15	0xed	-19
16	0x00	0
17	0xdb	-37
18	0x81	-127
19	0xcb	-53
20	0x68	104
21	0x1b	27
22	0xe1	-31
23	0xb5	-75
24	0x54	84
25	0x1f	31
26	0x3d	61
27	0xec	-20
28	0xad	-83
29	0x0d	13
30	0x53	83
31	0x97	-105
32	0x87	-121
33	0xca	-54
34	0x81	-127
35	0x54	84
36	0x0b	11
37	0x63	99
38	0xb6	-74
39	0x26	38
40	0x9a	-102
41	0xd3	-45
42	0xcf	-49
43	0xb1	-79
44	0x36	54
45	0x74	116
46	0x84	-124
47	0x57	87
48	0x6c	108
49	0x4d	77
50	0x1e	30
51	0xb7	-73
52	0xc0	-64
53	0xa1	-95
54	0x5f	95
55	0xec	-20
56	0xb7	-73
57	0x74	116
58	0xcd	-51
59	0xac	-84
60	0xfe	-2
61	0x69	105
62	0x6b	107
63	0xbe	-66
64	0x1e	30
65	0x49	73
66	0x3c	60
67	0x95	-107
68	0xb0	-80
69	0x65	101
70	0x8b	-117
71	0x9a	-102
72	0xce	-50
73	0xbd	-67
74	0xaa	-86
75	0x7f	127
76	0x76	118
77	0x48	72
78	0x1f	31
79	0x3b	59
80	0x47	71
81	0x2b	43
82	0x3a	58
83	0x14	20
84	0x69	105
85	0xd6	-42
86	0xe3	-29
87	0xf0	-16
88	0xe9	-23
89	0xe8	-24
90	0xd3	-45
91	0x2d	45
92	0xc8	-56
93	0x75	117
94	0x6e	110
95	0x0f	15
96	0x60	96
97	0x4a	74
98	0x3f	63
99	0xaf	-81
100	0xa3	-93
101	0x85	-123
102	0xf5	-11
103	0xc4	-60
104	0x00	0
105	0xf6	-10
106	0x42	66
107	0xeb	-21
108	0x2f	47
109	0xef	-17
110	0x52	82
111	0x81	-127
112	0xa6	-90
113	0x4a	74
114	0xe4	-28
115	0xba	-70
116	0x9b	-101
117	0x34	52
118	0x03	3
119	0xb1	-79
120	0xa9	-87
121	0xa0	-96
122	0x8c	-116
123	0x4a	74
124	0xa5	-91
125	0x43	67
126	0xb1	-79
127	0xeb	-21
128	0xa5	-91
129	0x8f	-113
130	0x69	105
131	0x02	2
132	0xf0	-16
133	0xfa	-6
134	0x61	97
135	0xd3	-45
136	0x49	73
137	0xf9	-7
138	0xe7	-25
139	0x0a	10
140	0x06	6
141	0xd4	-44
142	0xc8	-56
143	0x8b	-117
144	0x8e	-114
145	0xcf	-49
146	0x9b	-101
147	0x47	71
148	0xc2	-62
149	0xcb	-53
150	0x16	22
151	0x1c	28
152	0xce	-50
153	0x96	-106
154	0x9e	-98
155	0xa5	-91
156	0x48	72
157	0x57	87
158	0xa5	-91
159	0xce	-50
160	0xb3	-77
161	0xb2	-78
162	0x50	80
163	0x8f	-113
164	0xa7	-89
165	0xdd	-35
166	0xbe	-66
167	0x53	83
168	0xcd	-51
169	0x3c	60
170	0xff	-1
171	0x4f	79
172	0x63	99
173	0x43	67
174	0xa6	-90
175	0xaa	-86
176	0xa3	-93
177	0xb9	-71
178	0x48	72
179	0xf9	-7
180	0xd4	-44
181	0x43	67
182	0xd3	-45
183	0xa5	-91
184	0xb7	-73
185	0xfd	-3
186	0xcf	-49
187	0xb8	-72
188	0x8e	-114
189	0xbd	-67
190	0x81	-127
191	0x20	32
192	0xb0	-80
193	0x0b	11
194	0xaf	-81
195	0x00	0
196	0x1c	28
197	0xc7	-57
198	0x5c	92
199	0x8a	-118
200	0x83	-125
201	0x81	-127
202	0xde	-34
203	0x5e	94
204	0x12	18
205	0xbe	-66
206	0x7f	127
207	0xb3	-77
208	0x17	23
209	0x9a	-102
210	0x3b	59
211	0x51	81
212	0xb2	-78
213	0x07	7
214	0x74	116
215	0x3a	58
216	0xba	-70
217	0x49	73
218	0x5b	91
219	0x67	103
220	0x59	89
221	0xe5	-27
222	0xb7	-73
223	0x77	119
224	0xe0	-32
225	0x46	70
226	0xdd	-35
227	0xcc	-52
228	0xc5	-59
229	0x65	101
230	0xc7	-57
231	0x9b	-101
232	0x1c	28
233	0x6e	110
234	0x9d	-99
235	0xd9	-39
236	0x92	-110
237	0xb8	-72
238	0xe7	-25
239	0x68	104
240	0x15	21
241	0x37	55
242	0xe7	-25
243	0xdb	-37
244	0x99	-103
245	0x9d	-99
246	0x89	-119
247	0x6f	111
248	0xca	-54
249	0xb3	-77
250	0xa3	-93
251	0x95	-107
252	0x2a	42
253	0xa1	-95
254	0xd6	-42
255	0x1c	28

tfl.pseudo_qconst5 i1 [16, 1, 3, 12]
0	0xe7	-25
1	0xc0	-64
2	0xea	-22
3	0x86	-122
4	0xd5	-43
5	0xc8	-56
6	0x5d	93
7	0x27	39
8	0x99	-103
9	0x62	98
10	0x5c	92
11	0x89	-119
12	0x17	23
13	0xa9	-87
14	0x16	22
15	0x9c	-100
16	0x4a	74
17	0xdf	-33
18	0xfe	-2
19	0xf9	-7
20	0xab	-85
21	0x13	19
22	0x4b	75
23	0x9b	-101
24	0x28	40
25	0xac	-84
26	0xfe	-2
27	0x44	68
28	0x62	98
29	0x7f	127
30	0x00	0
31	0xc8	-56
32	0xe3	-29
33	0x56	86
34	0x3a	58
35	0xb9	-71
36	0x46	70
37	0x2c	44
38	0x0a	10
39	0xe8	-24
40	0x42	66
41	0xcf	-49
42	0xe8	-24
43	0x3b	59
44	0xe1	-31
45	0x03	3
46	0x21	33
47	0x2d	45
48	0x5e	94
49	0x41	65
50	0x1a	26
51	0x33	51
52	0x7f	127
53	0x7a	122
54	0x73	115
55	0xdb	-37
56	0x28	40
57	0x4b	75
58	0x94	-108
59	0xf0	-16
60	0x4c	76
61	0x05	5
62	0xaa	-86
63	0x0e	14
64	0x7f	127
65	0xe3	-29
66	0xe4	-28
67	0x64	100
68	0x26	38
69	0x56	86
70	0xd2	-46
71	0xbf	-65
72	0x0a	10
73	0xd4	-44
74	0xd4	-44
75	0x08	8
76	0x08	8
77	0xd8	-40
78	0xfc	-4
79	0x76	118
80	0x74	116
81	0xb2	-78
82	0x1f	31
83	0x33	51
84	0x3f	63
85	0x03	3
86	0xd3	-45
87	0xd8	-40
88	0xae	-82
89	0xfd	-3
90	0x37	55
91	0xfa	-6
92	0xa3	-93
93	0xdc	-36
94	0x2f	47
95	0x81	-127
96	0xc3	-61
97	0x67	103
98	0x9d	-99
99	0x90	-112
100	0xb8	-72
101	0x6c	108
102	0x66	102
103	0x18	24
104	0x4f	79
105	0x2d	45
106	0x1c	28
107	0x32	50
108	0x02	2
109	0x81	-127
110	0xa0	-96
111	0x23	35
112	0x9d	-99
113	0x28	40
114	0x81	-127
115	0xa7	-89
116	0xa3	-93
117	0xf0	-16
118	0x91	-111
119	0xf2	-14
120	0x03	3
121	0xfa	-6
122	0x51	81
123	0xcc	-52
124	0xf3	-13
125	0x17	23
126	0x4b	75
127	0x4a	74
128	0x28	40
129	0xa7	-89
130	0xa4	-92
131	0x51	81
132	0x41	65
133	0xd5	-43
134	0x81	-127
135	0xe0	-32
136	0x71	113
137	0x00	0
138	0xae	-82
139	0xa3	-93
140	0x4b	75
141	0x4b	75
142	0xaf	-81
143	0x35	53
144	0x0c	12
145	0x99	-103
146	0xce	-50
147	0xaf	-81
148	0x1a	26
149	0xcc	-52
150	0xf9	-7
151	0xd1	-47
152	0x8a	-118
153	0x81	-127
154	0x2e	46
155	0xde	-34
156	0xe0	-32
157	0x07	7
158	0xca	-54
159	0x9f	-97
160	0xad	-83
161	0x5d	93
162	0x3c	60
163	0x18	24
164	0x25	37
165	0xed	-19
166	0x2f	47
167	0xb7	-73
168	0x4a	74
169	0x0a	10
170	0x9b	-101
171	0x92	-110
172	0x31	49
173	0x9e	-98
174	0xf1	-15
175	0x19	25
176	0x28	40
177	0x01	1
178	0x14	20
179	0x67	103
180	0x5f	95
181	0x43	67
182	0xfc	-4
183	0xcd	-51
184	0xc4	-60
185	0x27	39
186	0xd9	-39
187	0xd7	-41
188	0xc0	-64
189	0xba	-70
190	0xfc	-4
191	0x73	115
192	0x92	-110
193	0x5a	90
194	0x37	55
195	0x9d	-99
196	0xc8	-56
197	0xbd	-67
198	0x65	101
199	0x02	2
200	0xbd	-67
201	0x7e	126
202	0x44	68
203	0x53	83
204	0x0e	14
205	0xe4	-28
206	0xb6	-74
207	0x1f	31
208	0x41	65
209	0x0e	14
210	0xe3	-29
211	0xa3	-93
212	0xc0	-64
213	0xfa	-6
214	0x29	41
215	0x7f	127
216	0xa4	-92
217	0x44	68
218	0xf3	-13
219	0x99	-103
220	0x98	-104
221	0xcb	-53
222	0xde	-34
223	0x0f	15
224	0x69	105
225	0xbe	-66
226	0xe7	-25
227	0x77	119
228	0x1e	30
229	0xe6	-26
230	0xf0	-16
231	0x7f	127
232	0xee	-18
233	0x8a	-118
234	0x3f	63
235	0x14	20
236	0x19	25
237	0xa7	-89
238	0x5b	91
239	0xc6	-58
240	0x0e	14
241	0x94	-108
242	0xbe	-66
243	0xe9	-23
244	0x52	82
245	0xca	-54
246	0x79	121
247	0x81	-127
248	0x41	65
249	0x46	70
250	0x9d	-99
251	0x22	34
252	0x19	25
253	0xf5	-11
254	0xe5	-27
255	0xd8	-40

tfl.pseudo_qconst7 i1 [16, 1, 1, 12]
0	0xdc	-36
1	0x34	52
2	0xe3	-29
3	0x7f	127
4	0xb8	-72
5	0xd2	-46
6	0x74	116
7	0x5b	91
8	0x71	113
9	0x96	-106
10	0xa7	-89
11	0x06	6
12	0x9a	-102
13	0x1a	26
14	0x60	96
15	0xdc	-36
16	0x4f	79
17	0x14	20
18	0x59	89
19	0x39	57
20	0x7f	127
21	0x87	-121
22	0xc2	-62
23	0xe8	-24
24	0xcd	-51
25	0x0d	13
26	0xb0	-80
27	0x6a	106
28	0xc3	-61
29	0xcb	-53
30	0xd1	-47
31	0x46	70
32	0x81	-127
33	0xc5	-59
34	0x1e	30
35	0xa7	-89
36	0x72	114
37	0x7f	127
38	0xd6	-42
39	0x11	17
40	0x14	20
41	0x94	-108
42	0x8f	-113
43	0xb6	-74
44	0x8e	-114
45	0xb9	-71
46	0x25	37
47	0xb5	-75
48	0xe0	-32
49	0xe9	-23
50	0x10	16
51	0xf8	-8
52	0x16	22
53	0xea	-22
54	0x8c	-116
55	0x18	24
56	0x30	48
57	0x7f	127
58	0x67	103
59	0x43	67
60	0xd6	-42
61	0x07	7
62	0xaf	-81
63	0x0e	14
64	0x44	68
65	0x19	25
66	0x81	-127
67	0xc1	-63
68	0xa6	-90
69	0x95	-107
70	0x91	-111
71	0xa8	-88
72	0xab	-85
73	0x03	3
74	0xa0	-96
75	0x4e	78
76	0x7f	127
77	0x96	-106
78	0x5a	90
79	0x20	32
80	0x65	101
81	0x57	87
82	0x98	-104
83	0x7b	123
84	0x1c	28
85	0x72	114
86	0xa5	-91
87	0x93	-109
88	0x01	1
89	0x8d	-115
90	0x7f	127
91	0x9d	-99
92	0xb4	-76
93	0x52	82
94	0x68	104
95	0x54	84
96	0x62	98
97	0x81	-127
98	0xcd	-51
99	0x8a	-118
100	0xef	-17
101	0x7e	126
102	0x00	0
103	0xc3	-61
104	0xcc	-52
105	0x7c	124
106	0xfc	-4
107	0x7e	126
108	0x5d	93
109	0x81	-127
110	0xde	-34
111	0xe7	-25
112	0xcc	-52
113	0x48	72
114	0x8f	-113
115	0xd6	-42
116	0x2d	45
117	0xc4	-60
118	0xe0	-32
119	0xc5	-59
120	0xde	-34
121	0xc3	-61
122	0x86	-122
123	0x81	-127
124	0xec	-20
125	0x1b	27
126	0xb8	-72
127	0xa8	-88
128	0x95	-107
129	0x3c	60
130	0x71	113
131	0x95	-107
132	0x56	86
133	0x81	-127
134	0x15	21
135	0x9c	-100
136	0x42	66
137	0x16	22
138	0xf2	-14
139	0x01	1
140	0xb2	-78
141	0x27	39
142	0x16	22
143	0xfc	-4
144	0xe5	-27
145	0x99	-103
146	0xd4	-44
147	0x40	64
148	0xe4	-28
149	0x43	67
150	0xc7	-57
151	0xde	-34
152	0xec	-20
153	0x66	102
154	0xa4	-92
155	0x7f	127
156	0x1f	31
157	0x46	70
158	0xa3	-93
159	0xdd	-35
160	0xe4	-28
161	0xc2	-62
162	0xda	-38
163	0x7f	127
164	0xea	-22
165	0x8f	-113
166	0x51	81
167	0x38	56
168	0xbc	-68
169	0x3f	63
170	0xed	-19
171	0xdf	-33
172	0x07	7
173	0xf5	-11
174	0xe4	-28
175	0xbe	-66
176	0xa0	-96
177	0x19	25
178	0x7f	127
179	0x27	39
180	0x97	-105
181	0x7f	127
182	0xae	-82
183	0xe5	-27
184	0xed	-19
185	0xaf	-81
186	0xe7	-25
187	0x18	24
188	0xcb	-53
189	0xe2	-30
190	0xe5	-27
191	0xdf	-33

tfl.pseudo_qconst9 i1 [12, 1, 1, 8]
0	0x6e	110
1	0x73	115
2	0xfa	-6
3	0x3d	61
4	0x7f	127
5	0x67	103
6	0xfd	-3
7	0xce	-50
8	0x88	-120
9	0x8a	-118
10	0x7f	127
11	0xed	-19
12	0xb4	-76
13	0x87	-121
14	0x84	-124
15	0x3f	63
16	0xac	-84
17	0x7f	127
18	0x21	33
19	0xce	-50
20	0x58	88
21	0x97	-105
22	0x9a	-102
23	0x50	80
24	0x96	-106
25	0x81	-127
26	0xe0	-32
27	0xfc	-4
28	0xcc	-52
29	0x2a	42
30	0x29	41
31	0xe0	-32
32	0x11	17
33	0x81	-127
34	0x36	54
35	0x8e	-114
36	0x05	5
37	0xea	-22
38	0x21	33
39	0x96	-106
40	0xea	-22
41	0x1b	27
42	0x7f	127
43	0x61	97
44	0x73	115
45	0x53	83
46	0x33	51
47	0xaa	-86
48	0xa0	-96
49	0x96	-106
50	0xf5	-11
51	0x94	-108
52	0x84	-124
53	0x49	73
54	0xda	-38
55	0x81	-127
56	0xc5	-59
57	0x91	-111
58	0x7f	127
59	0x8d	-115
60	0x45	69
61	0xd0	-48
62	0x2d	45
63	0x02	2
64	0xce	-50
65	0x8b	-117
66	0x7f	127
67	0x86	-122
68	0x9e	-98
69	0x85	-123
70	0xc4	-60
71	0x2d	45
72	0xad	-83
73	0x81	-127
74	0x9f	-97
75	0xc6	-58
76	0xeb	-21
77	0xe5	-27
78	0x83	-125
79	0x52	82
80	0xe4	-28
81	0x81	-127
82	0x3d	61
83	0xf7	-9
84	0xc3	-61
85	0x79	121
86	0xd5	-43
87	0xad	-83
88	0xa9	-87
89	0x7f	127
90	0x2a	42
91	0xb9	-71
92	0x73	115
93	0xaf	-81
94	0x6d	109
95	0x62	98

tfl.pseudo_qconst11 i1 [8, 1, 1, 12]
0	0xb0	-80
1	0x7a	122
2	0xaf	-81
3	0x5e	94
4	0x94	-108
5	0x75	117
6	0x81	-127
7	0x0b	11
8	0xbc	-68
9	0xd2	-46
10	0xba	-70
11	0xdd	-35
12	0x1e	30
13	0x92	-110
14	0x81	-127
15	0x6f	111
16	0xb4	-76
17	0xb5	-75
18	0x5a	90
19	0xb1	-79
20	0x9a	-102
21	0xc3	-61
22	0x7c	124
23	0x7d	125
24	0xa8	-88
25	0xc2	-62
26	0xdb	-37
27	0x2c	44
28	0x45	69
29	0xd0	-48
30	0xd1	-47
31	0x1b	27
32	0x8e	-114
33	0xd0	-48
34	0xd5	-43
35	0x7f	127
36	0xb9	-71
37	0xf6	-10
38	0xd7	-41
39	0x9c	-100
40	0x7f	127
41	0xd1	-47
42	0x52	82
43	0xf8	-8
44	0x46	70
45	0x27	39
46	0x99	-103
47	0xda	-38
48	0xac	-84
49	0x53	83
50	0x7e	126
51	0xa6	-90
52	0xb2	-78
53	0x19	25
54	0x81	-127
55	0xbe	-66
56	0x69	105
57	0x22	34
58	0x0d	13
59	0x0d	13
60	0x75	117
61	0xae	-82
62	0xf6	-10
63	0x5c	92
64	0xc9	-55
65	0x44	68
66	0x3a	58
67	0x62	98
68	0x8f	-113
69	0x04	4
70	0x7f	127
71	0x30	48
72	0x6c	108
73	0x94	-108
74	0x81	-127
75	0xbc	-68
76	0xe0	-32
77	0xf5	-11
78	0x22	34
79	0x6d	109
80	0x94	-108
81	0xcc	-52
82	0xc7	-57
83	0xce	-50
84	0xf3	-13
85	0x15	21
86	0xc3	-61
87	0xc3	-61
88	0xe2	-30
89	0x69	105
90	0x81	-127
91	0xef	-17
92	0xce	-50
93	0x25	37
94	0x5d	93
95	0x2f	47

tfl.pseudo_qconst13 i1 [12, 1, 3, 12]
0	0x5e	94
1	0x6f	111
2	0xe0	-32
3	0x06	6
4	0x7f	127
5	0xf5	-11
6	0xa9	-87
7	0x5a	90
8	0x07	7
9	0x5b	91
10	0x75	117
11	0x05	5
12	0x51	81
13	0x05	5
14	0x16	22
15	0xf2	-14
16	0x07	7
17	0x31	49
18	0x0c	12
19	0xd1	-47
20	0x1e	30
21	0x70	112
22	0xbe	-66
23	0xc2	-62
24	0x64	100
25	0xfc	-4
26	0x6a	106
27	0x59	89
28	0x15	21
29	0x37	55
30	0xea	-22
31	0xe5	-27
32	0xee	-18
33	0xd9	-39
34	0x75	117
35	0x09	9
36	0x6d	109
37	0xda	-38
38	0x23	35
39	0x46	70
40	0xbb	-69
41	0x24	36
42	0xe7	-25
43	0x1c	28
44	0x0a	10
45	0x55	85
46	0x42	66
47	0xd2	-46
48	0xb7	-73
49	0x2a	42
50	0x00	0
51	0x99	-103
52	0x36	54
53	0x44	68
54	0x70	112
55	0x2b	43
56	0x20	32
57	0xcd	-51
58	0x63	99
59	0xa7	-89
60	0x13	19
61	0x3e	62
62	0xaf	-81
63	0x92	-110
64	0xc6	-58
65	0xa2	-94
66	0x1b	27
67	0x1c	28
68	0x0f	15
69	0x81	-127
70	0x55	85
71	0x56	86
72	0x36	54
73	0x5e	94
74	0x0b	11
75	0xf8	-8
76	0x4c	76
77	0x65	101
78	0xea	-22
79	0x7a	122
80	0xf3	-13
81	0x45	69
82	0xc8	-56
83	0xd5	-43
84	0x2b	43
85	0xa2	-94
86	0x5b	91
87	0xc8	-56
88	0xc9	-55
89	0xa1	-95
90	0x9b	-101
91	0xc8	-56
92	0x1f	31
93	0x6c	108
94	0xb6	-74
95	0xaf	-81
96	0x7f	127
97	0x67	103
98	0x6c	108
99	0xe2	-30
100	0x75	117
101	0x1f	31
102	0xcc	-52
103	0xf1	-15
104	0xc1	-63
105	0x66	102
106	0xde	-34
107	0xef	-17
108	0x81	-127
109	0x55	85
110	0x6e	110
111	0xb3	-77
112	0xe7	-25
113	0x34	52
114	0x83	-125
115	0xed	-19
116	0xcd	-51
117	0x6e	110
118	0xf5	-11
119	0xd7	-41
120	0x99	-103
121	0x15	21
122	0x11	17
123	0xfd	-3
124	0x0a	10
125	0x55	85
126	0x36	54
127	0x6e	110
128	0x13	19
129	0xb9	-71
130	0x83	-125
131	0x81	-127
132	0xe6	-26
133	0x56	86
134	0x09	9
135	0xf2	-14
136	0x2f	47
137	0xce	-50
138	0xc5	-59
139	0x60	96
140	0xfa	-6
141	0x60	96
142	0xd5	-43
143	0x68	104
144	0x65	101
145	0x60	96
146	0x22	34
147	0x22	34
148	0xe8	-24
149	0xe5	-27
150	0x12	18
151	0xa4	-92
152	0x9e	-98
153	0xfa	-6
154	0x9e	-98
155	0x7f	127
156	0xd8	-40
157	0xc9	-55
158	0x3b	59
159	0x6a	106
160	0x1c	28
161	0x57	87
162	0x3b	59
163	0x6b	107
164	0xe6	-26
165	0xc4	-60
166	0x60	96
167	0xea	-22
168	0xf3	-13
169	0x9d	-99
170	0x0a	10
171	0xf0	-16
172	0xed	-19
173	0x06	6
174	0xdb	-37
175	0x26	38
176	0xcb	-53
177	0xed	-19
178	0xcb	-53
179	0x5a	90
180	0x66	102
181	0x08	8
182	0x68	104
183	0x99	-103
184	0x99	-103
185	0xa0	-96
186	0x64	100
187	0x42	66
188	0x44	68
189	0xfe	-2
190	0xa0	-96
191	0x52	82
192	0xe7	-25
193	0x62	98
194	0xf0	-16
195	0x86	-122
196	0xcd	-51
197	0xc6	-58
198	0x45	69
199	0xfb	-5
200	0x40	64
201	0x3f	63
202	0x12	18
203	0x65	101
204	0x18	24
205	0x68	104
206	0x9b	-101
207	0x81	-127
208	0xc9	-55
209	0x87	-121
210	0x31	49
211	0xd5	-43
212	0x0d	13
213	0x3f	63
214	0x96	-106
215	0xd9	-39
216	0x62	98
217	0xdd	-35
218	0x88	-120
219	0x09	9
220	0x72	114
221	0x23	35
222	0x6c	108
223	0x99	-103
224	0x71	113
225	0x08	8
226	0xea	-22
227	0x76	118
228	0x2c	44
229	0x2b	43
230	0x76	118
231	0xe8	-24
232	0x4d	77
233	0xf1	-15
234	0x74	116
235	0x93	-109
236	0x53	83
237	0xe6	-26
238	0xde	-34
239	0x01	1
240	0x72	114
241	0x59	89
242	0x3f	63
243	0xa8	-88
244	0x8d	-115
245	0x7f	127
246	0x48	72
247	0x9e	-98
248	0x4e	78
249	0x79	121
250	0x58	88
251	0x9e	-98
252	0xd0	-48
253	0x64	100
254	0xeb	-21
255	0x24	36

tfl.pseudo_qconst15 i1 [12, 1, 3, 8]
0	0x25	37
1	0xa5	-91
2	0x46	70
3	0x84	-124
4	0x0f	15
5	0xce	-50
6	0xde	-34
7	0xd7	-41
8	0x9c	-100
9	0x6b	107
10	0x4a	74
11	0x97	-105
12	0x13	19
13	0xfd	-3
14	0x1a	26
15	0xd3	-45
16	0x90	-112
17	0x94	-108
18	0xce	-50
19	0x3a	58
20	0x40	64
21	0x5d	93
22	0x48	72
23	0x7f	127
24	0x68	104
25	0x5b	91
26	0x25	37
27	0xe7	-25
28	0xdb	-37
29	0x1e	30
30	0x1e	30
31	0x22	34
32	0xc9	-55
33	0x83	-125
34	0x97	-105
35	0xc1	-63
36	0x81	-127
37	0x61	97
38	0xd6	-42
39	0x95	-107
40	0xe8	-24
41	0x1e	30
42	0xe7	-25
43	0x9f	-97
44	0xf0	-16
45	0xf7	-9
46	0x3a	58
47	0xf5	-11
48	0x37	55
49	0xa1	-95
50	0x34	52
51	0xbf	-65
52	0xc1	-63
53	0xb3	-77
54	0x7a	122
55	0x04	4
56	0xef	-17
57	0xcd	-51
58	0x68	104
59	0xba	-70
60	0x40	64
61	0x64	100
62	0x2c	44
63	0xdb	-37
64	0xc3	-61
65	0x69	105
66	0xcb	-53
67	0x42	66
68	0x91	-111
69	0xea	-22
70	0x7f	127
71	0xcc	-52
72	0x1b	27
73	0x1a	26
74	0xc8	-56
75	0x7f	127
76	0x55	85
77	0x82	-126
78	0xc4	-60
79	0x7f	127
80	0xa5	-91
81	0x40	64
82	0x91	-111
83	0xb3	-77
84	0x64	100
85	0x3b	59
86	0x5b	91
87	0x79	121
88	0xbf	-65
89	0xea	-22
90	0xc4	-60
91	0xc7	-57
92	0xe4	-28
93	0xda	-38
94	0x9c	-100
95	0xf8	-8
96	0xe6	-26
97	0x81	-127
98	0x5c	92
99	0x2a	42
100	0xa8	-88
101	0xbe	-66
102	0x58	88
103	0x99	-103
104	0x03	3
105	0xf0	-16
106	0x94	-108
107	0x17	23
108	0x2d	45
109	0xe6	-26
110	0xa8	-88
111	0x46	70
112	0x5a	90
113	0x8c	-116
114	0xe6	-26
115	0x4a	74
116	0xb1	-79
117	0x39	57
118	0xa7	-89
119	0x92	-110
120	0x8c	-116
121	0x36	54
122	0x84	-124
123	0x36	54
124	0xbf	-65
125	0xcd	-51
126	0xca	-54
127	0x89	-119
128	0xd7	-41
129	0xf2	-14
130	0x81	-127
131	0x40	64
132	0xe9	-23
133	0xf6	-10
134	0xcc	-52
135	0xa6	-90
136	0xb6	-74
137	0x0c	12
138	0xcf	-49
139	0x45	69
140	0x3c	60
141	0x7c	124
142	0x4c	76
143	0x93	-109
144	0xec	-20
145	0x83	-125
146	0xba	-70
147	0x4b	75
148	0xd8	-40
149	0x93	-109
150	0xc0	-64
151	0x90	-112
152	0x40	64
153	0x19	25
154	0xec	-20
155	0xbc	-68
156	0x34	52
157	0x4f	79
158	0x9c	-100
159	0x81	-127
160	0xfe	-2
161	0xd2	-46
162	0x79	121
163	0xca	-54
164	0xf2	-14
165	0x1a	26
166	0x9c	-100
167	0xba	-70
168	0x1d	29
169	0xa0	-96
170	0xd0	-48
171	0xcb	-53
172	0x25	37
173	0x12	18
174	0x77	119
175	0x8e	-114
176	0x11	17
177	0x59	89
178	0x81	-127
179	0x69	105
180	0x13	19
181	0x5c	92
182	0x02	2
183	0x57	87
184	0x4e	78
185	0x0c	12
186	0xe2	-30
187	0xc4	-60
188	0x64	100
189	0xc3	-61
190	0x09	9
191	0x13	19
192	0xe9	-23
193	0x1b	27
194	0x74	116
195	0x55	85
196	0x91	-111
197	0x17	23
198	0x07	7
199	0x66	102
200	0x4b	75
201	0xd2	-46
202	0x84	-124
203	0xbe	-66
204	0xa3	-93
205	0x19	25
206	0x10	16
207	0xff	-1
208	0x3b	59
209	0x96	-106
210	0x4f	79
211	0x27	39
212	0xd5	-43
213	0xc4	-60
214	0x5a	90
215	0x81	-127
216	0x5e	94
217	0x46	70
218	0x2c	44
219	0xbe	-66
220	0x96	-106
221	0x3d	61
222	0xa6	-90
223	0x64	100
224	0x3e	62
225	0x9e	-98
226	0x2d	45
227	0x46	70
228	0x32	50
229	0xa3	-93
230	0x34	52
231	0x26	38
232	0x7f	127
233	0x4b	75
234	0x27	39
235	0x04	4
236	0x08	8
237	0xcc	-52
238	0xa3	-93
239	0x12	18
240	0x2b	43
241	0x93	-109
242	0x21	33
243	0xe0	-32
244	0x7f	127
245	0x6d	109
246	0x03	3
247	0x49	73
248	0xc2	-62
249	0xa5	-91
250	0x34	52
251	0xd1	-47
252	0xea	-22
253	0x17	23
254	0x3b	59
255	0xfa	-6

tfl.pseudo_qconst17 i1 [12, 1, 1, 8]
0	0x4d	77
1	0x08	8
2	0xee	-18
3	0xbb	-69
4	0x3e	62
5	0x81	-127
6	0x94	-108
7	0xa6	-90
8	0xb8	-72
9	0x9c	-100
10	0x96	-106
11	0x7f	127
12	0x43	67
13	0xa1	-95
14	0xd1	-47
15	0x8f	-113
16	0xa3	-93
17	0xbd	-67
18	0x5e	94
19	0xe4	-28
20	0x81	-127
21	0xcf	-49
22	0xbd	-67
23	0x16	22
24	0x81	-127
25	0x6b	107
26	0x41	65
27	0x6b	107
28	0x3a	58
29	0x4c	76
30	0xf9	-7
31	0x0e	14
32	0x52	82
33	0x0b	11
34	0x50	80
35	0x17	23
36	0x7d	125
37	0xbb	-69
38	0xa8	-88
39	0x81	-127
40	0xd6	-42
41	0x07	7
42	0x7f	127
43	0x6b	107
44	0xe2	-30
45	0x81	-127
46	0xb6	-74
47	0x00	0
48	0xe5	-27
49	0xe1	-31
50	0xf4	-12
51	0xdc	-36
52	0xdf	-33
53	0x08	8
54	0x81	-127
55	0x78	120
56	0x7f	127
57	0x8e	-114
58	0x63	99
59	0x94	-108
60	0x1c	28
61	0x45	69
62	0xb9	-71
63	0x84	-124
64	0xff	-1
65	0x87	-121
66	0x74	116
67	0xf7	-9
68	0xe9	-23
69	0x7f	127
70	0x28	40
71	0x5f	95
72	0xde	-34
73	0x1f	31
74	0x7f	127
75	0xbb	-69
76	0xe0	-32
77	0x95	-107
78	0xb8	-72
79	0x5c	92
80	0xeb	-21
81	0x27	39
82	0x25	37
83	0x42	66
84	0x98	-104
85	0xab	-85
86	0x81	-127
87	0x5a	90
88	0x20	32
89	0xb0	-80
90	0xfb	-5
91	0x12	18
92	0x9d	-99
93	0x57	87
94	0x12	18
95	0x81	-127

tfl.pseudo_qconst19 i1 [8, 1, 3, 8]
0	0x9c	-100
1	0xbc	-68
2	0x8e	-114
3	0x1e	30
4	0x20	32
5	0x98	-104
6	0x81	-127
7	0xff	-1
8	0x0b	11
9	0x5f	95
10	0x65	101
11	0x89	-119
12	0x58	88
13	0x1f	31
14	0x3b	59
15	0xcd	-51
16	0x3e	62
17	0xcf	-49
18	0xf8	-8
19	0x3c	60
20	0x46	70
21	0x7e	126
22	0xe1	-31
23	0x5e	94
24	0xdc	-36
25	0xe4	-28
26	0xee	-18
27	0x92	-110
28	0x19	25
29	0xda	-38
30	0x6f	111
31	0x30	48
32	0x4b	75
33	0x56	86
34	0xad	-83
35	0x65	101
36	0x47	71
37	0x1c	28
38	0xec	-20
39	0xd4	-44
40	0x81	-127
41	0x24	36
42	0xc9	-55
43	0xd5	-43
44	0x43	67
45	0x91	-111
46	0xb6	-74
47	0x91	-111
48	0x04	4
49	0x8b	-117
50	0xe2	-30
51	0x19	25
52	0x9e	-98
53	0x6f	111
54	0xe7	-25
55	0xbc	-68
56	0x7f	127
57	0xc9	-55
58	0xad	-83
59	0x31	49
60	0xe7	-25
61	0x90	-112
62	0xef	-17
63	0xf2	-14
64	0x2e	46
65	0x8c	-116
66	0xdb	-37
67	0xfb	-5
68	0xd8	-40
69	0x04	4
70	0x45	69
71	0x52	82
72	0x64	100
73	0x36	54
74	0xbf	-65
75	0x61	97
76	0xd2	-46
77	0xb6	-74
78	0x67	103
79	0xbd	-67
80	0xda	-38
81	0xdd	-35
82	0x6f	111
83	0x9d	-99
84	0x2d	45
85	0x70	112
86	0x07	7
87	0x7c	124
88	0x78	120
89	0x82	-126
90	0xba	-70
91	0xc8	-56
92	0x81	-127
93	0xc3	-61
94	0x92	-110
95	0x88	-120
96	0xd1	-47
97	0x06	6
98	0x4e	78
99	0xcf	-49
100	0xc1	-63
101	0x4f	79
102	0xe0	-32
103	0xf7	-9
104	0xc7	-57
105	0xe4	-28
106	0xc1	-63
107	0x86	-122
108	0x7f	127
109	0x46	70
110	0xc1	-63
111	0x89	-119
112	0x38	56
113	0x02	2
114	0x5f	95
115	0x55	85
116	0x8c	-116
117	0xdb	-37
118	0x25	37
119	0x73	115
120	0xd4	-44
121	0x02	2
122	0x3d	61
123	0x46	70
124	0x8e	-114
125	0x81	-127
126	0x51	81
127	0xd4	-44
128	0xd4	-44
129	0xd6	-42
130	0x7b	123
131	0xc7	-57
132	0xd3	-45
133	0x66	102
134	0x92	-110
135	0x4a	74
136	0xe0	-32
137	0x5d	93
138	0xb7	-73
139	0xeb	-21
140	0x07	7
141	0x61	97
142	0x69	105
143	0xfc	-4
144	0x6f	111
145	0x74	116
146	0xa5	-91
147	0xad	-83
148	0xc5	-59
149	0x20	32
150	0x18	24
151	0x22	34
152	0x3c	60
153	0xfa	-6
154	0x84	-124
155	0x67	103
156	0x67	103
157	0x50	80
158	0x2d	45
159	0x81	-127
160	0xb8	-72
161	0x3f	63
162	0x71	113
163	0x2f	47
164	0xe1	-31
165	0x1b	27
166	0x71	113
167	0x3e	62
168	0xb6	-74
169	0x40	64
170	0x65	101
171	0x79	121
172	0x0c	12
173	0xaf	-81
174	0xd5	-43
175	0xec	-20
176	0x96	-106
177	0x10	16
178	0x79	121
179	0x62	98
180	0xb4	-76
181	0x34	52
182	0x9c	-100
183	0xe5	-27
184	0x0a	10
185	0x38	56
186	0xfc	-4
187	0x7f	127
188	0xdb	-37
189	0xfb	-5
190	0x77	119
191	0x99	-103

tfl.pseudo_qconst21 i1 [8, 1, 3, 16]
0	0x6f	111
1	0x33	51
2	0xa2	-94
3	0x40	64
4	0xb1	-79
5	0xd3	-45
6	0xb1	-79
7	0x2a	42
8	0xf4	-12
9	0xc3	-61
10	0x4c	76
11	0x4e	78
12	0xa3	-93
13	0x41	65
14	0x36	54
15	0xa0	-96
16	0xed	-19
17	0x6b	107
18	0xb0	-80
19	0x9b	-101
20	0x3d	61
21	0xe4	-28
22	0xbe	-66
23	0x25	37
24	0x78	120
25	0xaa	-86
26	0x23	35
27	0xa9	-87
28	0xfc	-4
29	0xb2	-78
30	0x24	36
31	0xa6	-90
32	0x0f	15
33	0xd9	-39
34	0x70	112
35	0xdd	-35
36	0xc7	-57
37	0xa8	-88
38	0x1c	28
39	0xf4	-12
40	0x13	19
41	0x7f	127
42	0xd6	-42
43	0xdf	-33
44	0x6f	111
45	0x9a	-102
46	0xcd	-51
47	0x46	70
48	0x61	97
49	0x4f	79
50	0x38	56
51	0x6c	108
52	0x1b	27
53	0xff	-1
54	0x85	-123
55	0x1e	30
56	0xa4	-92
57	0x8e	-114
58	0xe9	-23
59	0xf1	-15
60	0xcb	-53
61	0x48	72
62	0xe0	-32
63	0xb8	-72
64	0xb3	-77
65	0x36	54
66	0x04	4
67	0x50	80
68	0xef	-17
69	0x81	-127
70	0x42	66
71	0x47	71
72	0x32	50
73	0xe7	-25
74	0x3c	60
75	0xb7	-73
76	0xd3	-45
77	0x09	9
78	0xf8	-8
79	0xa3	-93
80	0xd6	-42
81	0xf3	-13
82	0x35	53
83	0xbb	-69
84	0xac	-84
85	0xed	-19
86	0x2c	44
87	0x55	85
88	0x04	4
89	0x48	72
90	0xb7	-73
91	0x6e	110
92	0xaf	-81
93	0xd8	-40
94	0xb2	-78
95	0x86	-122
96	0xa6	-90
97	0xe1	-31
98	0x70	112
99	0xce	-50
100	0xd9	-39
101	0xe9	-23
102	0xd7	-41
103	0xac	-84
104	0x8f	-113
105	0xd2	-46
106	0xc8	-56
107	0xff	-1
108	0x42	66
109	0x1d	29
110	0xc4	-60
111	0x96	-106
112	0x07	7
113	0x18	24
114	0x1d	29
115	0x7f	127
116	0x4b	75
117	0x76	118
118	0xb1	-79
119	0x15	21
120	0x8e	-114
121	0xf3	-13
122	0x42	66
123	0xd2	-46
124	0x06	6
125	0x96	-106
126	0xc1	-63
127	0x5b	91
128	0xec	-20
129	0xb0	-80
130	0x78	120
131	0x6c	108
132	0xdb	-37
133	0x43	67
134	0x86	-122
135	0x63	99
136	0x7e	126
137	0xa2	-94
138	0xd5	-43
139	0x51	81
140	0x1e	30
141	0x1a	26
142	0x23	35
143	0x8d	-115
144	0x37	55
145	0xff	-1
146	0xd4	-44
147	0x65	101
148	0x43	67
149	0x14	20
150	0xa6	-90
151	0xea	-22
152	0xca	-54
153	0xda	-38
154	0x3b	59
155	0x93	-109
156	0x06	6
157	0x9f	-97
158	0x55	85
159	0x2b	43
160	0x2c	44
161	0x01	1
162	0x86	-122
163	0x40	64
164	0x93	-109
165	0x70	112
166	0x41	65
167	0x4e	78
168	0xaf	-81
169	0xc1	-63
170	0x90	-112
171	0x48	72
172	0x40	64
173	0xc1	-63
174	0xa4	-92
175	0x12	18
176	0x19	25
177	0x92	-110
178	0xbb	-69
179	0xb9	-71
180	0xd2	-46
181	0xbc	-68
182	0x0e	14
183	0xf7	-9
184	0x47	71
185	0xec	-20
186	0x3e	62
187	0x14	20
188	0x44	68
189	0x06	6
190	0x7f	127
191	0x09	9
192	0x18	24
193	0xc9	-55
194	0x81	-127
195	0x8a	-118
196	0x35	53
197	0xd4	-44
198	0xb4	-76
199	0x10	16
200	0x1f	31
201	0x4b	75
202	0x24	36
203	0x0b	11
204	0xa2	-94
205	0x10	16
206	0xdd	-35
207	0xcb	-53
208	0x19	25
209	0x97	-105
210	0x0c	12
211	0x41	65
212	0xcb	-53
213	0x9d	-99
214	0x8c	-116
215	0x8c	-116
216	0x3e	62
217	0xd4	-44
218	0x31	49
219	0xd3	-45
220	0xb8	-72
221	0xee	-18
222	0xe2	-30
223	0x90	-112
224	0x84	-124
225	0x2b	43
226	0x35	53
227	0xb0	-80
228	0x38	56
229	0xc9	-55
230	0xdb	-37
231	0x42	66
232	0xca	-54
233	0x26	38
234	0xee	-18
235	0x01	1
236	0x2f	47
237	0x86	-122
238	0x88	-120
239	0x34	52
240	0x44	68
241	0x2c	44
242	0x6c	108
243	0x08	8
244	0xe9	-23
245	0x20	32
246	0xd7	-41
247	0x14	20
248	0x81	-127
249	0x8a	-118
250	0xf8	-8
251	0x22	34
252	0x14	20
253	0xe0	-32
254	0x9a	-102
255	0xd7	-41

tfl.pseudo_qconst23 i1 [8, 1, 1, 16]
0	0xe5	-27
1	0xa7	-89
2	0xb9	-71
3	0xf0	-16
4	0x8f	-113
5	0xc8	-56
6	0xfa	-6
7	0x6d	109
8	0x07	7
9	0x6c	108
10	0xea	-22
11	0x43	67
12	0xc6	-58
13	0x03	3
14	0x81	-127
15	0x2d	45
16	0x0b	11
17	0xea	-22
18	0x77	119
19	0x7c	124
20	0x1c	28
21	0x63	99
22	0xf5	-11
23	0x52	82
24	0xb0	-80
25	0x84	-124
26	0xc7	-57
27	0xce	-50
28	0x9d	-99
29	0x81	-127
30	0x43	67
31	0x8f	-113
32	0x14	20
33	0x0d	13
34	0xd3	-45
35	0x61	97
36	0x73	115
37	0xad	-83
38	0x02	2
39	0x98	-104
40	0xd2	-46
41	0x7f	127
42	0x27	39
43	0xba	-70
44	0x46	70
45	0x9a	-102
46	0x4c	76
47	0x2a	42
48	0x5d	93
49	0x59	89
50	0x9f	-97
51	0xaf	-81
52	0x33	51
53	0x7f	127
54	0x60	96
55	0x49	73
56	0x78	120
57	0x1f	31
58	0xe4	-28
59	0x88	-120
60	0x95	-107
61	0x6e	110
62	0x13	19
63	0xb3	-77
64	0xb4	-76
65	0x00	0
66	0xb1	-79
67	0x5d	93
68	0x4b	75
69	0x31	49
70	0xd7	-41
71	0x81	-127
72	0x6d	109
73	0xf3	-13
74	0xfd	-3
75	0xef	-17
76	0xf2	-14
77	0xf7	-9
78	0x21	33
79	0x87	-121
80	0x51	81
81	0xe1	-31
82	0x1a	26
83	0xd4	-44
84	0x8f	-113
85	0xbc	-68
86	0xb4	-76
87	0xc4	-60
88	0x69	105
89	0xcc	-52
90	0xb5	-75
91	0x81	-127
92	0xbf	-65
93	0xc3	-61
94	0x00	0
95	0xff	-1
96	0x92	-110
97	0x6e	110
98	0x3c	60
99	0xfb	-5
100	0xc5	-59
101	0xef	-17
102	0x7f	127
103	0x63	99
104	0xce	-50
105	0xf1	-15
106	0xd3	-45
107	0xae	-82
108	0x59	89
109	0x60	96
110	0x07	7
111	0xab	-85
112	0xd8	-40
113	0xf2	-14
114	0xb8	-72
115	0x8b	-117
116	0x21	33
117	0x34	52
118	0x81	-127
119	0x17	23
120	0x8e	-114
121	0x63	99
122	0xf5	-11
123	0x86	-122
124	0x00	0
125	0x6f	111
126	0x82	-126
127	0xd6	-42
